BackEnd/automatic/model_storage/model-cc.pkl (torch, 186031 bytes, 8 tensors)

weight f4 [97, 128]
00000000: 62bc 983f 54ce 8fbf 10ce 003f 73f2 f9bd
00000010: d98d 79be 11d6 c4bf 570c 623f 567b c93f
00000020: e3ca 5c3e 16dc f5bc c90a 91bf 1f9d 0140
00000030: 046a 7c3d 38b9 3e3e c872 093e f6eb b2bf
00000040: c9dd 12bf f9ff 493e 37c9 2bbf 1873 a23f
00000050: 6b37 94bf e2d8 cd3f 9dbb a4bf 7f72 52bf
00000060: ec7c 52bf 7620 f6bf d0e5 433f ec0d cd3f
00000070: 90f0 bf3e 62e4 69be 0283 8cbf cadc 4a3e
00000080: b3df aebf 32a1 c4bf 60eb 13bf d95b 763d
00000090: 643b 08c0 d8d1 f53e 8bd5 aa3f a532 d73e
000000a0: 564e 1abd eaca a7bf d6ac 4e3e 6ac2 d2bf
000000b0: 1a55 d43d e73e a53f 1d9f a73f 450b d8bf
000000c0: bea9 b83f 1242 7f3f e1e1 f1bd 85e4 67bf
000000d0: 3a45 4d3e 6f6e 093f 7fd6 91bf 36f3 4bbf
000000e0: 53d8 9bbf b113 653e 34b4 cd3f 08eb 4d3e
000000f0: e460 5ebf 2d86 8b3f 61e7 df3e e9b1 cbbe
00000100: 5e90 e73f 596f c93e 1ecd 06bf 4011 18bf
00000110: eae6 f03f 5d3d e83f bcd9 84be e89b 4fbf
00000120: a962 773e 9016 84bd 3a15 a53e 0629 b9be
00000130: 47d6 003f f046 763f 55e5 053e 4896 2bbf
00000140: 8824 68bf dcfc a4be 18a1 c93e 4d5d d2be
00000150: 44db e2bf 64e9 993e cd2f 363f ef8f babe
00000160: dfe8 bcbd 0685 393f 8d52 67bf 5e4a cc3f
00000170: 2b70 6e3f 41d6 f1bd 3cc0 6abf 7c2d 2bbd
00000180: 52d1 993f c4e2 d1be 6e68 4b3f ccba 71be
00000190: 49ce c33e f77c e73f ec36 74bf 786f 84be
000001a0: 719e 4fbd 07aa 1e3f f70c 1dc0 11de 83bf
000001b0: f93e 1c3e 41f5 603f 60ad 8d3f 35f4 4e3f
000001c0: a57e 5e3d d366 4c3f 6880 d33d a85e 49bf
000001d0: 0c7f df3e 6573 193f ad8d 4fbf abfd 5dbc
000001e0: 4268 23bf e841 d7be cadf 833f 8a5e fabe
000001f0: 36e8 bb3f cc11 2d3f 319c 803f b2b0 a73f
00000200: c9a6 94bf 970e 1e40 dd2a 29be 2367 e0be
00000210: 69f4 dabc 33e9 343f 95ad 463f bb2d 13bf
00000220: 151f 8dbd cbff 853f e633 263f b417 d73e
00000230: df99 c4bf 1890 27bd 62c6 8abe e258 abbf
00000240: f85d 29bf 8288 f53e ed12 683f 88f1 8f3f
00000250: c297 dfbe e2d9 18bf 32b7 61bf 0ca4 a0bf
00000260: 254c 80bf 7766 8e3d 8c89 aabe 71ed ce3f
00000270: 5ac3 70bf cc82 1e3f 8ddd 393d a9c7 edbf
00000280: 5cd1 0fc0 7e65 cc3f 41f9 643f 059d 433f
00000290: 5ad0 43bf e7a5 f0be 0454 43c0 25e7 323f
000002a0: 6387 4c3e 198c 0fc0 584d 033f 8c53 45be
000002b0: 6c3a 93bf 467e a63f 3cef b63f b0c9 bbbf
000002c0: 8f81 57bf ce64 6cbf b2d5 383f 9962 a03f
000002d0: 0df8 063f 8043 0ebe 2460 25bf 67ba e2be
000002e0: 5140 a6be 50a4 b2bf a3b3 9a3f adaf a73e
000002f0: 8556 a03f 295b 183f a0e9 6f3f 123d 2ebf
00000300: d170 203f e36a c33e b496 f53d b274 a83f
00000310: 6660 ecbf 44eb 2abf 794b 853b 4655 bfbf
00000320: 49e1 343f ae5f 99be e761 9d3d ca41 0dbe
00000330: b6fa a53f 73d5 a4bf ea71 a1bf e0e5 283e
00000340: 470f 673f 1f59 ed3d a800 ebbe 578d f4bd
00000350: f1ab c7bf 9b49 323f 20d1 99bf d2fe 643f
00000360: e7d8 2a3f 0654 f6be 68b0 763e 16d7 f53e
00000370: dd46 c93c 31b3 b93e 5d7a 8a3f 40e1 da3d
00000380: 0e49 0bbe dd07 8b3f 7580 93bf f3b1 353f
00000390: bd71 82bf 76c2 9f3e fcf9 11bf 49cc c73e
000003a0: a19b b9be 42a9 b8be c594 9d3e cab6 76bf
000003b0: d699 1cbf 36f2 dbbe 96ce f7be 9212 c43d
000003c0: 667c 8abe 0a92 a7be c5f8 f93d 313a 453e
000003d0: f0fd 833f 0533 6bbe 6ba6 a13e ee6a 073f
000003e0: 9502 edbe 6718 c93f ca12 1d3e c6e6 acbf
000003f0: 7276 963f 52f1 8cbf 6558 a03f f022 86bf
1.193249 -1.1234841 0.50314426 -0.12204447 -0.24370517 -1.5377828 0.8830008 1.5740764
0.2156177 -0.030012172 -1.1331416 2.025215 0.061624542 0.18625343 0.13422692 -1.397826
-0.5736967 0.19726552 -0.67103904 1.2691374 -1.1579412 1.6081812 -1.2869755 -0.8220596
-0.82221866 -1.9228656 0.7652254 1.6019874 0.37488222 -0.22841027 -1.097748 0.19810787
-1.3662018 -1.5361693 -0.5778103 0.060146187 -2.128625 0.4801166 1.3346418 0.42030826
-0.037672363 -1.31088 0.20183119 -1.646558 0.10367794 1.2909821 1.3095433 -1.6878439
1.4426801 0.9971019 -0.11810661 -0.9058307 0.20045939 0.53684133 -1.1393584 -0.79667985
-1.2175392 0.22370793 1.6070619 0.20109189 -0.86866593 1.0900322 0.43731216 -0.39784172
1.8090932 0.39342764 -0.52656734 -0.5940132 1.8820469 1.8143727 -0.25947368 -0.8109727
0.2415873 -0.06449616 0.32242757 -0.3616411 0.5032696 0.9620199 0.13075764 -0.67026186
-0.9068074 -0.32224166 0.39380717 -0.41086808 -1.7723165 0.30060875 0.7116669 -0.36437938
-0.09224104 0.724686 -0.9036034 1.5960195 0.93139905 -0.11808444 -0.91699576 -0.041791424
1.2017004 -0.4099332 0.7945622 -0.23606414 0.3824332 1.8085011 -0.95396304 -0.25866294
-0.05068821 0.6197819 -2.4539163 -1.0302144 0.15258397 0.8787423 1.1068535 0.8084138
0.054319996 0.798444 0.10327226 -0.7866006 0.43651617 0.59941703 -0.81075555 -0.013549249
-0.6383096 -0.4204247 1.030267 -0.48900253 1.468024 0.6760528 1.0047666 1.3100798
-1.1613399 2.4696405 -0.16520257 -0.43828687 -0.026727872 0.70668334 0.77608615 -0.57491654
-0.06890694 1.0468687 0.6492294 0.42010272 -1.5359458 -0.040908903 -0.2710448 -1.33865
-0.6615901 0.4795571 0.9065388 1.1245584 -0.4367047 -0.5970746 -0.8817016 -1.2550063
-1.0023237 0.06953137 -0.33308065 1.6166211 -0.9404808 0.6191833 0.045377303 -1.8576556
-2.2471533 1.5968473 0.8944283 0.7641147 -0.76489794 -0.47001573 -3.052003 0.6988395
0.19973521 -2.242926 0.5128989 -0.19270152 -1.1502204 1.3007286 1.4291759 -1.4670925
-0.84182066 -0.92341316 0.72201073 1.253009 0.52722245 -0.13892937 -0.64599824 -0.4428284
-0.32470945 -1.3956394 1.2086071 0.32751217 1.2526404 0.595141 0.9371586 -0.68061936
0.62672144 0.38167486 0.11991635 1.3160613 -1.8466918 -0.66765237 0.004067835 -1.4947898
0.7065626 -0.2995581 0.07684689 -0.13794628 1.2967136 -1.287764 -1.2612889 0.1649394
0.90257686 0.11589264 -0.45898938 -0.11941021 -1.5599347 0.69643563 -1.2016945 0.89451325
0.66737217 -0.4811098 0.24090731 0.4801566 0.024569923 0.36269525 1.0818592 0.10687494
-0.13602087 1.0861775 -1.1523577 0.70974654 -1.019096 0.3120305 -0.5702207 0.39023045
-0.36251548 -0.36066633 0.30777565 -0.96372664 -0.61172235 -0.4295823 -0.483998 0.095738545
-0.27048033 -0.32728606 0.12205652 0.1926048 1.031187 -0.22968681 0.3157228 0.52897537
-0.46291032 1.5710572 0.15339199 -1.3507926 1.1754897 -1.1011145 1.2526976 -1.0479412

weight f4 [32, 128, 3]
00000000: ad08 a5bd 0b1a 393e b645 efbd b157 7dbb
00000010: a43a dd3d 542d b4bb 04df 8e3c 7f75 9c3d
00000020: b336 d43b 1b18 01bd b528 dfbd 0ea7 52bd
00000030: 1617 4f3c 4440 d0bd e5d8 263b 1b73 f33c
00000040: 9501 e53d 6f4f 603d 75be 403d fb29 fbbc
00000050: b111 3e3c 6cda a03d 6504 73bd 17e7 3bbd
00000060: 3292 99ba 50ee d0bd ba44 98bd 850b 8ebd
00000070: 41f1 f23c 75b8 7ebc 2c34 c43b f355 2f3e
00000080: e61c c33d 40e4 9dbc 80a3 bcbd 847e b6bd
00000090: e1bf 953c 417e 3d3d ad93 ef3d abe4 53bd
000000a0: 1eaa 803d 6674 a43d 985d ba3d 50aa 55bc
000000b0: 83cc 9d3d 13b8 623d 4490 453d ec52 9a3d
000000c0: 2cb4 3fbc 61db 3c3d 50bf 3d3d 83a8 153d
000000d0: 5be8 f3bd 3842 43bc 9504 45bd 537e ee3c
000000e0: 441c 16bc aab3 ad3d 1655 4b3d 9503 b33d
000000f0: c509 553c fe63 373c bd9b 153e 1d17 dfbd
00000100: 9aa8 9e3b 614e 183c deac 65bb 885b 0a3d
00000110: 949c 9a3c 0c9c ab3c a88f c93d 438f 17bd
00000120: 795c 02bd 8325 06bc 0616 79bd b313 86bd
00000130: a515 95bc 0dac 843d f573 ac3d de4a c0bc
00000140: 5c3f 11bd 8ac2 97bd 54af 60bc defc 963b
00000150: de21 d7bd 9706 95bd 406c 0cbc d115 56bd
00000160: 734b c6bd 3d3d 85bb b5c1 e8bc 2c17 9bbc
00000170: ae68 083e 46de c1bc be2c 3fbd 9552 bcbd
00000180: 516b a83c b222 d8bd 4a78 c13d 0d43 43bb
00000190: ea79 d5bc 1592 073e d844 873d ccb3 833d
000001a0: 9c13 babd c481 ad3c aae6 efbd 8094 d13b
000001b0: 35fe b53c cb3e 823c 1ea0 c3bd 1986 ba3d
000001c0: 08c9 393d ecf5 90bd 22f0 33bc 23e2 233d
000001d0: a3e8 e5bc d577 873d 9633 033d 9ceb b03d
000001e0: 9dcb afbd 9b4e e2bd 4db6 77bd 1a0b a2bb
000001f0: bab9 413c c872 b73c deb6 2bbd 096d 88bc
00000200: ba7c ebbd 06c6 c7bc 747e 8ebc ddcd b8bd
00000210: 9e07 2c3d 8586 123e 984b b8bd a9e4 373d
00000220: 43c6 80bd f78f 3e3c d00f 333d d96a 56bd
00000230: 7808 bd3d 6226 993d 31e6 95bd ea81 ff3d
00000240: 4c50 b9bd 415a a13c 0b2b 523d 5b6a 10bd
00000250: 9975 fb3c 21f1 48bb 8028 05bc 9c70 5abe
00000260: e255 113d 6bb3 28bd 66ec 223e 8c58 67bd
00000270: a6c1 25bd 2643 93bb 48ea c33d 66cf 1abd
00000280: cfb0 37be 71b2 12be 5c02 bebd 20b4 d3bd
00000290: fd12 adbc e7f0 a63c 23ce ef3d a9c2 cc3c
000002a0: e1fb 76bb 8ab9 a53b aec2 c43d 6165 5bbc
000002b0: c23d 993d c464 2b3d 6dd0 b7bd 8d58 2abc
000002c0: 0b36 e53a 518f e03b 16a7 8ebd 339e 70bd
000002d0: c4c0 c73c cf68 283d 9ed3 1ebd 9d6d 503d
000002e0: 9675 0bbe 5d81 a7bd 7a0c 00bd d86f c3bc
000002f0: 5747 e0bc 3f5b 1cbd 4a07 243e a684 d9bd
00000300: 8d85 2fbe 27ef 92bd 7cf8 aabd 1529 8f3d
00000310: c233 c53d 0621 993c 2f60 b93c d897 3cbb
00000320: bf51 753d 10f9 acbd 44c3 8e3c a0d1 c53b
00000330: ef9d d8bc 00af a8bd b8b8 b1bd 8090 66bc
00000340: f401 4c3d f44e 013d e913 c03b 70e1 533d
00000350: c3f7 c9bc 3ab0 f73c 4067 b7bd 4031 713d
00000360: 6ea2 17be 988d 4bbc f6f2 82bb e390 1b3c
00000370: e378 2abe 79ad 183d af87 c63b 75e2 94bb
00000380: d3e5 1bbd 4869 32bd 7616 0c3d 717d a63d
00000390: 5d02 023e e9f2 d73c 79bf 48bc 8819 c6bb
000003a0: 2301 823d 9ae3 d1bd ede6 cc3c 2a2c 833d
000003b0: e196 6a3c 2de2 1f3d e8c8 b4bd cecd 803d
000003c0: a7cf 94bd 7b8b 2bbe 45b4 1e3d d84b 75bd
000003d0: d66b 093c 18f7 17bd 86b7 8c3c e7ab 57be
000003e0: 75b9 643c d9d1 043e a840 fcbc 7709 4f3d
000003f0: 794e 613c b7f5 24be e4cd fbbb a1c0 89bd
-0.080582954 0.18076341 -0.11683218 -0.0038657004 0.108022004 -0.0054985676 0.017440327 0.07639598
0.006476247 -0.03151713 -0.10896436 -0.051428847 0.012639781 -0.10168508 0.002545887 0.029717973
0.111819424 0.054763254 0.047056634 -0.030659666 0.011600898 0.07854161 -0.059330363 -0.04587468
-0.0011716543 -0.102017045 -0.074349836 -0.06935791 0.029656054 -0.015546908 0.0059876647 0.17122631
0.09526996 -0.019273877 -0.09210873 -0.0891085 0.018279972 0.046262983 0.11698089 -0.051731747
0.06282447 0.08030014 0.09099883 -0.013041094 0.07705023 0.055351328 0.048233286 0.07535347
-0.011700671 0.046107654 0.046325028 0.03653766 -0.11909553 -0.011917643 -0.048100073 0.02911297
-0.0091620125 0.08481534 0.04964169 0.087409176 0.0130028175 0.011193274 0.1461019 -0.108930804
0.004841876 0.009296031 -0.0035045664 0.033778697 0.01887349 0.020948432 0.098418534 -0.03700186
-0.03182647 -0.008187654 -0.06081202 -0.06546726 -0.018198797 0.064781286 0.084205545 -0.0234732
-0.035460815 -0.07410152 -0.0137136765 0.004607781 -0.105045065 -0.072766475 -0.008570731 -0.0522669
-0.096823595 -0.004066138 -0.02841268 -0.018931948 0.13321182 -0.023665559 -0.04667353 -0.09195439
0.020558985 -0.105534926 0.094467714 -0.0029794604 -0.02605911 0.1323932 0.06604928 0.06430778
-0.090857714 0.021180041 -0.117139176 0.0063958764 0.022215942 0.015899083 -0.09552024 0.09107608
0.045357734 -0.07078156 -0.010982545 0.040010583 -0.028065031 0.06614653 0.032031618 0.08638689
-0.08583758 -0.11050149 -0.06047659 -0.004945171 0.011824066 0.0223936 -0.041922443 -0.016653555
-0.11498399 -0.024386417 -0.017394282 -0.0902364 0.04199945 0.14309128 -0.08998793 0.0448958
-0.062878154 0.011631004 0.04371625 -0.05234799 0.09230131 0.07478024 -0.07319296 0.12475951
-0.090485185 0.019696357 0.05131058 -0.03525768 0.030695723 -0.0030661302 -0.008127332 -0.2133202
0.035482295 -0.04118673 0.15910491 -0.05648093 -0.04046788 -0.0044940887 0.0956617 -0.037795447
-0.17938541 -0.14325882 -0.09277794 -0.103370905 -0.021127218 0.020378543 0.11709239 0.024995165
-0.0037686753 0.0050575184 0.09607445 -0.01339087 0.074824825 0.041844144 -0.08975301 -0.010397089
0.001748742 0.006853022 -0.06965463 -0.05874462 0.02438391 0.04111558 -0.038776033 0.050885785
-0.13619074 -0.08178971 -0.0312619 -0.023857042 -0.027377767 -0.038172957 0.16018406 -0.10621004
-0.1714079 -0.07174521 -0.08348176 0.06990258 0.09629013 0.018692505 0.022628872 -0.002877703
0.059892412 -0.084459424 0.017427094 0.006036952 -0.026442496 -0.082365036 -0.086778104 -0.014072537
0.04980655 0.031569436 0.0058617485 0.051728666 -0.024654275 0.030235399 -0.0895524 0.05888486
-0.14808056 -0.012423895 -0.0039962484 0.009494993 -0.16647677 0.03727481 0.006058655 -0.0045435973
-0.038060974 -0.043557435 0.034201108 0.08129395 0.12696214 0.026360946 -0.012252682 -0.006045524
0.06347873 -0.1024849 0.025012458 0.06404908 0.014318199 0.039034057 -0.08827382 0.06289254
-0.07266169 -0.16752426 0.038746137 -0.059886783 0.0083875265 -0.03710088 0.017177355 -0.2106167
0.013960232 0.12970676 -0.03079255 0.050546136 0.0137516195 -0.16109358 -0.007684456 -0.06726194

bias f4 [32]
00000000: 576b 2b3a eba7 953c a518 61bd c7cf 343d
00000010: 7f83 05bc a436 fbbc 986c 31bd 5d0f 823b
00000020: 5538 3dbd adaf 833c a9fa 653c 38ca 9c3c
00000030: 47df 54bd 78ad 823c 03cd d3bc 4ce0 99bd
00000040: 85a3 45bd acf2 41bc ecc6 0139 5d41 44bd
00000050: 3624 babc 0eca c3bb efa9 6cbd 5222 eb3c
00000060: 0f2f cd3c 3e3e 39bd 31cb 1dbd 5ae3 f7bc
00000070: 08e0 a9bd 6f8e e3bc 13ec 2f3c f34f f53c
0.0006539127 0.018268546 -0.054955143 0.044143464 -0.008149027 -0.030665703 -0.043316454 0.0039691166
-0.0461963 0.01607498 0.014036813 0.019139394 -0.051970746 0.015951857 -0.025854593 -0.07513484
-0.048251648 -0.011837643 0.00012376503 -0.047913898 -0.022722345 -0.0059750145 -0.05777925 0.028702889
0.025046853 -0.045225374 -0.038523857 -0.030259777 -0.08294684 -0.027777879 0.010737437 0.02994535

weight f4 [32, 128, 5]
00000000: 9077 143e 14da e6bc bcf8 4bbd 6b45 59bd
00000010: 0317 0e3b c12f 8b3c a210 4dbd a202 67bd
00000020: fc10 45bc 0959 54bd eeb6 cc3c 4ec8 933b
00000030: 4f6c 50bd cf9f adbc edeb 793d 40fd bcbb
00000040: 661d 72bb 7ca0 8b3c dd67 883c 55e1 e3bd
00000050: 053d 2b3c 1ace 093c 39c7 1abd df20 f43a
00000060: 2e3a 41bc 9f88 7abd 3d2b 863d 0376 033d
00000070: f5ab b03d f335 5dbb b88f 1ebb b4ac 8f3d
00000080: 0f81 233b b6f1 03bc 21b2 e8bd 9b3c 0bbd
00000090: 21c3 2dbc bdb8 b63d 0f72 e73b a301 f1bb
000000a0: 79ae 933d 3b53 34bd f9b3 6cbd 0bfa 26ba
000000b0: 3c8e da3c 1db0 d2bd 36f8 afbc 82a6 163d
000000c0: 5099 d6bb 6695 133d 1dc6 6bbc d3bd bebc
000000d0: 9400 49bd 6a8c ffbc 359a 3dbc b094 87bc
000000e0: 29c5 80bc 1622 4cbd cd69 25bb d333 b5bd
000000f0: bf31 ae3d ae09 693d 2a15 223d 43c4 e9bb
00000100: 8550 d0bd 9885 82bd 6796 1d3d e17d 173c
00000110: 8aea ae3d abd5 82bd bbfc 10bd b344 663d
00000120: 86b6 f53c fc97 1f3b 8667 e93d acba 56bd
00000130: 6d24 b4bb d746 ca3c 9d5f fdbc f2e0 1fbd
00000140: 638c 80bd 35f9 153c a0be c2bc aad2 9bbd
00000150: c63f e73c b8cc 213d a559 afb9 6627 0b3c
00000160: a969 a2bd 5b20 583d 27b5 353c abbd 05bd
00000170: c2d7 87bd 1c2c 203d ab81 0ebd 9958 5f3d
00000180: 87b8 a7bb cf80 c73c 3ac3 94bc ec5b 39bd
00000190: 1c36 083b 7330 22bd 23fc 03bd dc55 2cbb
000001a0: f4b1 e7bd 1708 4a3d 5f11 f6bc d114 04bd
000001b0: 3de6 1dbd 2911 8fbd 3727 9abd a4bb 343c
000001c0: 65ae 633d 8371 57bd 1b1f 073d 4d01 623c
000001d0: 4763 7f3c aa28 3cbd 3b9f 17bc a302 f23d
000001e0: f27b d7b9 727d 3aba 83ca 0c3c b710 343d
000001f0: e2cb 823c 3d52 873c 9fce 2a3d a202 433d
00000200: f61b bbbb 831d 8fbd 3b52 f63c a6e7 40bc
00000210: 74dc 843d 8ac3 773d 77d0 8f3d 729f 28bd
00000220: f994 843c 5adc 483d 3c58 f2bc 3cef cd3c
00000230: 5cd9 83ba 3025 573d b396 19bd cb44 e8bb
00000240: 145f 49bd dee7 8e3d 624f 8bb8 f18a 0b3d
00000250: befb cc3c 55d8 303d c37e 583c a567 973d
00000260: e741 3fbc a8c0 a23b 92ee d6bc 6db9 7dbd
00000270: b642 6cbd c122 7fba 1576 0fbd 96e5 ad3d
00000280: bd8c 5a3d 4ea9 063d cd12 7dbc 080d ad3d
00000290: 8267 ab3d bb73 d0bb a644 4e3c bdd0 333d
000002a0: 73fc 98ba fad2 3ebd 8fa0 72bb 23e8 a6bc
000002b0: 544c 58bd e2aa 28bb 1d82 13bc a498 fdbc
000002c0: 4190 28bb 0c8d 113d 27b0 45bd d35b a7bd
000002d0: 2192 d1bb 5dbb 91bc 1819 e2bc 2f1c 813c
000002e0: b674 833d 9d44 90bd bd7b 683c e1de 97bc
000002f0: 29a6 04bd 37f8 71bd d9ef 3d3c 30b9 193b
00000300: 121b bebd a1f6 483d 2d23 92bd ff5c df39
00000310: 2f1b 0a3d 7752 02bd fe50 c43d 3717 debd
00000320: ea48 39bd 569d 613c a8dc 46bd 0a81 893c
00000330: 569f a13d 89a8 19bd f57b 0d3d d2e6 853c
00000340: 1ba9 643c cd0f 793d 6c1e 1e3d df69 6b3c
00000350: 0905 02bd 56de 093b 7927 dabb 4868 ba3c
00000360: 11d5 193c 05e6 f1bc d227 46bc e95f 9fba
00000370: 4eca d1bc 3909 61bd ef2c 193c 5891 2cbd
00000380: fa45 a5bd 5584 77bc 5386 403c e3da 103d
00000390: df71 dcbc d2dd 2b3c 1a39 7bbd fdf0 ce3a
000003a0: 1ebc db3b 7a44 6fbc ed90 5ebd 8c3e 673c
000003b0: 1a1d 033d 6612 d83c fa89 81bb ea0d 59bd
000003c0: 1846 c73c dcf0 29bc 6a71 153c d060 1abd
000003d0: bb44 f13d a7f8 783d e733 473d 697d d2bc
000003e0: 0919 21bd b0d1 98bd 3489 623d 9ef6 103c
000003f0: 7a71 ca3c 629b c3bb d09a 833d d149 a1bc
0.14498734 -0.02818016 -0.04979776 -0.053044718 0.0021681197 0.016990544 -0.05006469 -0.056398995
-0.012027975 -0.051842723 0.024989571 0.004509962 -0.05088454 -0.021194367 0.061016012 -0.0057674944
-0.0036943792 0.017044298 0.016651088 -0.11126963 0.01045156 0.008410955 -0.03778765 0.0018625519
-0.011793656 -0.06116545 0.06551216 0.032094967 0.08626548 -0.003375408 -0.002419455 0.070153624
0.002494875 -0.008053234 -0.113621004 -0.033993345 -0.010605604 0.08921955 0.0070631574 -0.0073549314
0.072110124 -0.044024687 -0.057788823 -0.0006369657 0.02667915 -0.10287497 -0.02148066 0.036779888
-0.006549038 0.03603115 -0.014390496 -0.023283875 -0.049072817 -0.031194884 -0.01157241 -0.016550392
-0.015719013 -0.049837194 -0.0025240064 -0.08847775 0.08505582 0.056893997 0.039570965 -0.007133992
-0.10171608 -0.06373137 0.038473513 0.00924632 0.085408285 -0.0638841 -0.035397273 0.05621786
0.02999426 0.0024352064 0.11396699 -0.052424118 -0.0054975064 0.024691982 -0.030929381 -0.039032884
-0.06276777 0.009153654 -0.023772538 -0.0760854 0.028228652 0.039501876 -0.0003344539 0.00849328
-0.07930309 0.05276523 0.011090553 -0.032651585 -0.066329494 0.039104566 -0.03479163 0.054527853
-0.005118433 0.024353413 -0.018159498 -0.04525368 0.0020784205 -0.039596986 -0.03222288 -0.0026296293
-0.11313239 0.04932412 -0.03003758 -0.032246415 -0.03854965 -0.06985695 -0.07527011 0.011031065
0.055586237 -0.052598488 0.03298865 0.013794255 0.015587634 -0.045937218 -0.009254272 0.11816909
-0.00041100342 -0.000711403 0.008593204 0.043961253 0.01596636 0.016518706 0.041700955 0.047609933
-0.0057101203 -0.06988051 0.030068507 -0.011773979 0.064873606 0.060489215 0.070221834 -0.041167684
0.016184317 0.04903827 -0.029583089 0.02513849 -0.0010059285 0.0525257 -0.037497234 -0.007088279
-0.04916294 0.06977819 -6.642823e-05 0.03406805 0.025022384 0.04317506 0.013213816 0.073928155
-0.011673427 0.004966814 -0.026236806 -0.061944414 -0.057680808 -0.0009732657 -0.03502472 0.08491056
0.053356875 0.032876305 -0.015446377 0.08449751 0.08369352 -0.0063614524 0.012589609 0.04390024
-0.0011671915 -0.04658792 -0.003702197 -0.020374363 -0.052807167 -0.002573662 -0.009003189 -0.030956574
-0.0025720748 0.035534903 -0.048263695 -0.08171811 -0.0063955938 -0.017789537 -0.027599856 0.01576051
0.06418745 -0.07044337 0.014189658 -0.018538894 -0.032385025 -0.059074607 0.011592829 0.0023456328
-0.09282507 0.04906333 -0.071356155 0.00042603162 0.03371733 -0.031816926 0.095857605 -0.10844272
-0.045235552 0.013770422 -0.048550278 0.016785163 0.07891719 -0.037514243 0.034542043 0.016345415
0.0139563335 0.060806084 0.03860323 0.014368503 -0.031743083 0.0021037064 -0.0066575375 0.022754803
0.009389178 -0.029528627 -0.012094455 -0.0012159321 -0.025609162 -0.054940436 0.009349092 -0.042130798
-0.080699876 -0.015107234 0.011750775 0.035364997 -0.026909767 0.010489898 -0.061333753 0.0015788373
0.006705775 -0.014603728 -0.05433743 0.014114033 0.032010175 0.02637596 -0.0039532157 -0.052991785
0.024325415 -0.010372367 0.009121278 -0.037689984 0.117806874 0.06078401 0.048633482 -0.025694566
-0.039330516 -0.0746187 0.05530663 0.008847861 0.024712313 -0.005969451 0.064260125 -0.019688519

bias f4 [32]
00000000: 1215 6e3b d4f6 59bd 6074 b63a 355e 24bd
00000010: 2f80 65bc d627 85bc 1017 9839 9f18 053c
00000020: 619e 0bbc e822 8c3b 2c47 e4bc f53b 53bd
00000030: e983 5cbc 3975 063d 42ee e2bc 9690 5abc
00000040: 9db7 cfbc e74e 2b3c 071c 15bd 2641 113d
00000050: e168 fabc f0d6 8ebc 2923 0fbd 6509 17bc
00000060: 95cb 3fbd bcb4 8fbc cf53 43bd 1f3f 553c
00000070: 20d3 353c 9576 01bd 6364 013c 8971 a2bb
0.0036328477 -0.05321391 0.001392018 -0.040128905 -0.014007612 -0.016254347 0.00029008882 0.008123546
-0.008521647 0.004276622 -0.027865969 -0.05157085 -0.013459184 0.032826636 -0.0277015 -0.013340136
-0.025356108 0.0104558235 -0.036403682 0.03546252 -0.030567588 -0.017436475 -0.03494564 -0.009218548
-0.04682501 -0.017542236 -0.047687348 0.0130155375 0.011097699 -0.03160723 0.007897469 -0.004957382

weight f4 [2, 64]
00000000: 342b 0b3e d043 4abd 30b7 12be f8f0 4d3e
00000010: 807c 583c c1ff 283e f10f dabc 2059 15bd
00000020: 5164 41bd 4767 8ebd 0937 afbd b485 90bc
00000030: 6bb0 07be 37c1 9bbd 62dd 063e 2c35 883d
00000040: a507 183d 3211 01bc 6af1 623a 4b75 36be
00000050: b873 cabb 5b70 383e 80fb 86bd 9753 eb3a
00000060: a090 24bd caae 43be 2760 bdbd 44ee 233d
00000070: 3312 06be 1394 dc3d 27ea 0a3d 21b0 683e
00000080: 6188 fb3d e3d3 c8bd de41 163e 7a52 7c3d
00000090: b43e b73d d523 adbc 83c5 fe3c 44ff 9a3c
000000a0: 96a3 6dbc 231b 223e 23b0 bbbd 3d9f f8bd
000000b0: 8185 dcbd 415b 063e cc87 b53a be10 05be
000000c0: a6ce 3ebe 2735 cd3c 2d6f f6bd 23d1 853d
000000d0: 4264 1fbe d8bd b9bd f5f7 283e fced c43d
000000e0: bf26 e9bd 6ba5 e9bd 9073 05bc 550c 05be
000000f0: 9661 aa3d c768 ccbd 573c 49bd 2f2c 9abd
00000100: a3ed 7ebd c639 1e3e 7cda 883c 0cef 39bb
00000110: bdb6 00be 44bb 73bc 2237 91bd b1cb 87bd
00000120: 4992 8c3d 1b8a c73d 8a1f 5f3c 7912 df3d
00000130: 775f 82bc a418 013e da7a 16be 4ef5 b93d
00000140: 4df7 c6bd deba f63d 4a6b 0a3e 6b11 df3c
00000150: d39a c63d 164f 8fbc c8b8 693d f38c ff3d
00000160: fa1d 2a3e 8c3f 8f3c 9620 db3d 35ec e03d
00000170: c4fc 02bd 2f90 11be 545d 9cbd 7b69 a5bd
00000180: b918 0bb9 bc63 ec3c e938 33be 400b 60bd
00000190: d629 3fbd a0e8 fc3d 4214 95bd 99ea 09be
000001a0: 679c e03d 2515 4c3c 4359 a43d 999f a63d
000001b0: 72d3 923d 83d5 cdbd 2a21 28be 8c08 d43c
000001c0: b916 523d 6491 e6bd bd8c 043d c51d 5bbd
000001d0: 652e 003d 9f50 5e3c 7ceb c6bc 1561 1bbe
000001e0: 443c c73d 54fb a83d 224e ec3d f8f4 3a3d
000001f0: 3d83 62bd af30 0d3e 2f59 ec3d ab6e ed3d
0.135907 -0.049381077 -0.14327693 0.20111454 0.013213277 0.16503812 -0.02661893 -0.03646195
-0.04721481 -0.06953292 -0.08555419 -0.01764188 -0.13250892 -0.07605212 0.13170388 0.06650767
0.037116665 -0.007877635 0.00086571893 -0.17818181 -0.0061783455 0.1801161 -0.065909386 0.0017953989
-0.040176988 -0.19109645 -0.09246855 0.04002215 -0.1309288 0.107704304 0.03391471 0.22723438
0.122818716 -0.09806039 0.14673564 0.061602093 0.089475065 -0.02113525 0.03110004 0.018920548
-0.014504334 0.15830664 -0.09164455 -0.12139747 -0.10767651 0.13120748 0.0013849675 -0.12994668
-0.18633518 0.02504976 -0.12032924 0.0653403 -0.15565589 -0.09069413 0.16500838 0.096157044
-0.11384343 -0.11408504 -0.008145228 -0.12992986 0.08319394 -0.09980922 -0.04912981 -0.075279586
-0.062238347 0.15451726 0.016705744 -0.0028371243 -0.12569709 -0.014876191 -0.07090594 -0.06630648
0.06863839 0.097431384 0.013618359 0.10892195 -0.015914662 0.12607056 -0.14695302 0.09079991
-0.09715138 0.12047361 0.1351749 0.027229985 0.09697499 -0.017493766 0.057060987 0.12478056
0.16612998 0.017486356 0.10699575 0.10982553 -0.031979337 -0.14215158 -0.076349884 -0.080767594
-0.00013265283 0.02885615 -0.17502178 -0.05469823 -0.046670757 0.12349057 -0.072792545 -0.13468398
0.109673314 0.012456213 0.08024838 0.081359096 0.07169236 -0.1005049 -0.16418901 0.025882982
0.0512912 -0.112582 0.03236078 -0.053495187 0.031294245 0.013569026 -0.02428221 -0.15173753
0.09728292 0.08251062 0.1153834 0.045643777 -0.05530094 0.13788103 0.11540448 0.11593374

bias f4 [2]
00000000: cb62 033e 4dc7 ecbd
0.12830655 -0.11561451

features f4 [1, 64]
00000000: 1884 5a41 1093 9640 ab51 2641 d2b8 fc40
00000010: 66dc a040 245a ca40 0cdb f33f 41b3 f43f
00000020: 4252 9340 5fb7 ad40 46ec b940 2517 8240
00000030: c0fd 9d40 8c9e bc40 fb46 ec40 822b 2740
00000040: 7201 9540 2824 cf40 e271 0341 cf67 2241
00000050: dfb2 0a41 2b50 fb40 c699 6740 4541 7b40
00000060: 2d5a 1441 f61d 0641 57ba 8b40 7632 8e40
00000070: 47b4 cb40 0286 d140 c3a8 a940 42c9 d740
00000080: 08a6 f240 9a35 1341 063c 8541 3e04 2a41
00000090: 5be9 a040 c746 9e40 556b 9340 f77c 0241
000000a0: eb24 9b40 7e7d 2e41 2867 2f41 6e98 2e41
000000b0: 73b1 c240 d79f 9d40 da0c bc40 1548 4e41
000000c0: f3f2 7441 350b 2141 23f7 ae40 7fc7 6240
000000d0: 5d78 2d41 2ee2 d640 6367 1841 aed5 5441
000000e0: a004 5141 9821 be40 eded c040 0620 4141
000000f0: af89 4b41 9f9f 3b41 5847 8340 a2fe 1841
13.657249 4.705452 10.394938 7.897561 5.026904 6.3235035 1.9051223 1.9117204
4.603791 5.428634 5.810092 4.0653253 4.9372253 5.894354 7.3836646 2.6120305
4.6564264 6.4731636 8.215303 10.150344 8.66867 7.853536 3.6187606 3.9258587
9.272016 8.382315 4.3664966 4.44366 6.3657565 6.5476084 5.301851 6.7433176
7.5827675 9.200586 16.654308 10.626036 5.028486 4.94614 4.606852 8.155509
4.8482566 10.905638 10.962685 10.912214 6.0841613 4.9257617 5.876569 12.892598
15.309314 10.065236 5.467668 3.5434263 10.841886 6.71511 9.525241 13.302168
13.063629 5.941601 6.0290437 12.070318 12.721114 11.72647 4.102459 9.562166
